cnn_pretrained.pt (torch, 32732 bytes, 5 tensors)

weight f4 [16, 3, 3, 3]
-0.0046657627 -0.17933899 0.17326917 0.03749522 -0.20427786 0.25934803 -0.06874421 0.0011226594
0.26201412 -0.12585142 0.007328903 0.19239253 -0.06252831 -0.00084221887 0.048241086 -0.20290975
-0.17303267 0.090384886 0.04611242 -0.1316129 0.070569165 -0.19864234 -0.11709439 0.23812316
0.042492885 -0.09010967 0.20073268 0.05023939 -0.08410617 -0.11728057 0.020683944 0.116554104
0.13986415 -0.11805835 0.11793296 0.15570374 0.009257455 0.06529983 0.1273182 -0.033872567
-0.008801197 0.016268693 -0.13047478 0.13999087 -0.14401858 0.15844975 0.10120789 -0.1511667
0.1496726 0.06530179 -0.029213587 0.2234943 0.11861382 0.062189076 -0.036182687 0.22518475
0.02598886 0.07768483 0.205139 -0.2553729 -0.1923577 0.2819681 -0.14696853 0.059668977
0.18958342 -0.21479735 -0.029863592 -0.05663012 -0.0126776425 0.06427576 -0.060450736 -0.025913281
-0.20044059 0.055374417 0.08972463 -0.112099536 0.11111991 -0.03474998 -0.17933574 0.058347225
-0.04696324 -0.16867985 0.11706398 0.04822657 -0.1989552 0.1582759 0.06686371 -0.22708979
0.032136068 -0.061662033 -0.15695527 -0.13482244 0.1775481 0.06857613 -0.060922686 -0.1269285
-0.050581217 0.075963825 -0.0022101891 0.013356135 -0.05404291 0.02286825 0.14827605 0.08218697
-0.23445296 0.01742392 0.07074555 -0.041009072 -0.21900958 -0.08926157 0.08337026 -0.09401281
0.19946936 0.23410171 -0.12282675 0.19037071 0.02610367 -0.2718146 0.20306633 0.21847756
-0.2560476 -0.04134861 0.105972536 -0.0828343 0.046325736 0.02054468 -0.15305045 0.09873309
0.04370157 -0.23642686 -0.039972592 -0.09035984 -0.11109188 0.21620052 0.19561008 0.29915714
-0.098868765 -0.118084066 0.27493328 0.12721522 -0.15721783 0.2708791 -0.093226984 -0.22673373
0.018601932 0.028336938 -0.14004268 -0.045056242 0.07647046 0.027360795 -0.0060041836 0.009040655
-0.09439445 -0.020042226 0.03291088 0.011947915 -0.06689787 0.11049638 -0.20357499 0.2350664
-0.1231869 -0.13576305 -0.29290235 0.027652815 0.06619861 -0.29390752 0.083262525 0.059118103
-0.1393637 0.27509794 0.12169566 -0.20515063 0.13822882 0.09089804 -0.05082291 0.16701353
0.2538222 -0.18131097 0.06271412 -0.07608798 -0.25072938 0.07710073 0.041746646 -0.060397945
0.09146458 0.005832915 -0.28188482 0.15348163 0.19069792 -0.027061328 0.24219228 -0.15491283
0.2218978 0.07500106 -0.21918511 0.012109481 0.1757177 -0.26171315 0.26839578 -0.028234
-0.09075659 0.08532471 0.29139006 -0.20915996 -0.04915398 0.0106387455 -0.2520629 0.096852556
0.10013863 -0.33363435 0.22860824 0.016883884 -0.13363734 -0.04727042 0.15623058 -0.12154918
-0.06381627 0.0318061 0.006860515 -0.1623956 0.1618456 0.11417171 -0.036057238 -0.15672584
0.14243129 -0.11386564 0.18492335 0.13690789 -0.09264997 0.15327346 0.06938311 -0.30080956
-0.050621077 0.18741676 0.015880713 0.01678758 -0.028339181 -0.08246653 -0.1368403 -0.039372522
-0.15218015 0.087025054 0.22950928 -0.18838467 0.16475457 -0.040899433 0.10728958 0.2198313
-0.07848985 -0.16041794 0.10793506 -0.07168325 0.06602915 0.12613663 -0.13338628 0.08702273
00000000: 41e3 98bb a4a4 37be 796d 313e 9694 193d
00000010: 372e 51be 44c9 843e c4c9 8cbd 3326 933a
00000020: b726 863e 32df 00be 4b27 f03b 8c02 453e
00000030: d80e 80bd 5ac8 5cba 7298 453d 93c7 4fbe
00000040: 7a2f 31be b61b b93d 60e0 3c3d 88c5 06be
00000050: 9186 903d e668 4bbe 2fcf efbd 8fd6 733e
00000060: 050d 2e3d 6b8b b8bd de8c 4d3e d2c7 4d3d
00000070: db3f acbd cc30 f0bd 6071 a93c ebb3 ee3d
00000080: 8c38 0f3e 94c8 f1bd d686 f13d cd70 1f3e
00000090: 95ac 173c ebbb 853d b45f 023e f6bd 0abd
000000a0: e532 10bc ec45 853c 2e9b 05be c459 0f3e
000000b0: 9b79 13be a740 223e 1546 cf3d 72cb 1abe
000000c0: c643 193e f2bc 853d 5551 efbc b1db 643e
000000d0: cdeb f23d f9b9 7e3d 4c34 14bd d596 663e
000000e0: 97e6 d43c 3919 9f3d f50f 523e 3dc0 82be
000000f0: 6bf9 44be 1f5e 903e eb7e 16be 7567 743d
00000100: 2822 423e d6f3 5bbe 7ea4 f4bc fcf4 67bd
00000110: e3b5 4fbc 02a3 833d 319b 77bd 1748 d4bc
00000120: 4c40 4dbe 49d0 623d 8cc1 b73d 7194 e5bd
00000130: d692 e33d ff55 0ebd caa3 37be 80fd 6e3d
00000140: 875c 40bd 69ba 2cbe 3dbf ef3d 3989 453d
00000150: e9ba 4bbe 1413 223e d7ef 883d 3a8a 68be
00000160: 1ca1 033d 5491 7cbd e2b8 20be e50e 0abe
00000170: 2bcf 353e a471 8c3d 118a 79bd 8bf9 01be
00000180: 402e 4fbd ec92 9b3d d2d8 10bb b1d3 5a3c
00000190: 195c 5dbd 3256 bb3c add5 173e a451 a83d
000001a0: 7014 70be 9cbc 8e3c 0be3 903d 21f9 27bd
000001b0: 0c44 60be c5ce b6bd 07be aa3d ca89 c0bd
000001c0: b241 4c3e 5cb8 6f3e 978c fbbd 8af0 423e
000001d0: 5dd7 d53c 492b 8bbe 9ff0 4f3e 95b8 5f3e
000001e0: ac18 83be 295d 29bd 2108 d93d 08a5 a9bd
000001f0: 0ec0 3d3d 514d a83c 42b9 1cbe 9334 ca3d
00000200: 6b00 333d e219 72be 4dba 23bd 940e b9bd
00000210: 2484 e3bd ab63 5d3e 024e 483e 202b 993e
00000220: b57b cabd 0fd6 f1bd 0ec4 8c3e b544 023e
00000230: b6fd 20be aab0 8a3e caed bebd e32c 68be
00000240: 1463 983c de22 e83c 5967 0fbe e58c 38bd
00000250: 8b9c 9c3d bf23 e03c bebe c4bb 411f 143c
00000260: e151 c1bd 982f a4bc 8fcd 063d 30c1 433c
00000270: c001 89bd ed4b e23d f675 50be 3fb5 703e
00000280: 6a49 fcbd 7805 0bbe 4cf7 95be 2888 e23c
00000290: 2393 873d 0c7b 96be 8b85 aa3d d325 723d
000002a0: 5cb5 0ebe a3d9 8c3e 933b f93d 0213 52be
000002b0: db8b 0d3e c028 ba3d af2b 50bd 9805 2b3e
000002c0: fcf4 813e 95a9 39be 4370 803d 04d4 9bbd
000002d0: 9a5f 80be fde6 9d3d 88fe 2a3d d663 77bd
000002e0: c851 bb3d 0a22 bf3b 3553 90be 4a2a 1d3e
000002f0: 5146 433e b8af ddbc 4101 783e 78a1 1ebe
00000300: 2d39 633e 289a 993d 1072 60be d866 463c
00000310: 57ef 333e 44ff 85be 2c6b 893e fd4a e7bc
00000320: 97de b9bd b9be ae3d 1431 953e 072e 56be
00000330: af55 49bd 224e 2e3c 630e 81be a25a c63d
00000340: 7b15 cd3d 1fd2 aabe 4718 6a3e 1250 8a3c
00000350: 3ad8 08be a19e 41bd e9fa 1f3e c7ee f8bd
00000360: 1bb2 82bd 1d47 023d 2cce e03b 084b 26be
00000370: daba 253e dcd2 e93d c1b0 13bd bd7c 20be
00000380: 82d9 113e 6332 e9bd 8c5c 3d3e 9531 0c3e
00000390: 44bf bdbd b8f3 1c3e bb18 8e3d b603 9abe
000003a0: 0c58 4fbd 2eea 3f3e 4518 823c 1b86 893c
000003b0: 9227 e8bc 36e4 a8bd dd1f 0cbe 1545 21bd
000003c0: 1dd5 1bbe 313a b23d 7b04 6b3e e9e7 40be
000003d0: 6cb5 283e 2a86 27bd a4ba db3d 751b 613e
000003e0: 49bf a0bd 9a44 24be 0f0d dd3d abce 92bd
000003f0: 4a3a 873d f629 013e 6a96 08be f938 b23d

bias f4 [16]
-0.009349554 0.12977678 0.030929815 -0.25837913 0.04523224 0.22591121 0.14096877 0.11915178
0.12447866 0.05482954 -0.17624065 0.2973859 -0.016742261 0.18684264 0.11400006 -0.29378697
00000000: df2e 19bc 34e4 043e 8660 fd3c 454a 84be
00000010: 7145 393d 4555 673e 1e5a 103e d905 f43d
00000020: abee fe3d f194 603d 6e78 34be f742 983e
00000030: 1127 89bc ad53 3f3e dd78 e93d 3f6b 96be

weight f4 [32, 16, 3, 3]
-0.036707953 0.008178276 0.15517768 -0.045075346 -0.08217466 0.10908546 -0.083641864 -0.15273735
0.23124844 0.06580024 0.04720792 0.09083886 0.01197419 -0.027612073 0.020124312 -0.049390774
0.020276492 0.07653888 -0.008675248 0.0069869035 0.06765474 -0.045761023 -0.069205076 0.01603239
-0.059202302 -0.00021692898 0.025227286 -0.06073213 0.083287396 0.015820365 0.049747635 0.090719596
0.079016596 0.07150912 0.009602635 0.08707239 -0.008035619 -0.000872394 0.18629344 -0.016621308
0.022470253 0.16406529 -0.028956015 -0.061980736 0.16576089 -0.047013745 0.02740304 -0.14388426
0.00042455748 0.028042244 -0.15069641 0.054401796 -0.011666459 -0.15287372 0.018091513 -0.031343143
0.1259976 -0.05701287 -0.08881478 0.23865694 -0.08593594 -0.057201836 0.111043334 0.026376484
-0.07140576 -0.18849991 -0.0060691643 -0.118034735 -0.2438784 -0.06045636 -0.016510721 -0.21559106
-0.034898408 0.07180269 0.1301415 -0.0038094404 -0.046371322 0.13773683 0.042260244 -0.06230872
0.013252516 0.016822606 -0.051374167 0.028065516 -0.057422847 -0.0040623304 0.05643502 -0.059441272
0.06883636 0.010718116 -0.025168283 -0.0828712 0.1302953 -0.07094612 -0.16354108 -0.020297727
-0.03491455 -0.12357447 0.07983521 0.0062102242 0.047976486 0.07385607 -0.088419676 -0.070313916
0.10174134 -0.07725171 -0.076705985 0.08261123 -0.048431497 -0.010674357 0.017811453 0.022479154
-0.0416946 0.05537008 -0.065971605 0.009600586 0.05982334 -0.0036153586 0.05486807 0.016389482
0.036152143 0.03890186 0.071591526 0.058852915 -0.08352812 0.020503711 0.006334418 0.044878505
-0.11578805 -0.09063724 0.054353002 -0.07539681 0.03207946 -0.08715991 -0.1462272 -0.039340038
0.01118103 0.0847476 0.044093404 0.019859372 0.035811372 0.015111758 0.07847449 0.0022907984
-0.06081439 -0.05897155 -0.051656738 -0.06591197 0.009807758 -0.033492424 0.07355732 -0.011139862
0.009832266 -0.060025126 0.033534016 -0.090484545 -0.012347202 -0.035652507 0.011529154 0.0029423973
-0.06100735 0.02297085 0.02617219 -0.018632255 -0.016988004 -0.094647065 -0.08850349 -0.008308665
-0.09179651 -0.02272984 -0.0021206434 0.027008314 0.06378078 0.068870924 0.013116634 0.029188232
-0.045551687 0.061285906 0.015409698 -0.06977348 -0.09314147 -0.01185642 -0.05449996 -0.027901683
0.022898657 -0.04926576 0.012627139 -0.062489156 0.043447554 0.06480692 -0.02636113 -0.045499906
0.018502533 0.01724946 0.025442442 0.06952662 0.022100732 0.012049618 -0.05928417 -0.0119765075
-0.034988824 -0.017324341 -0.028945928 -0.025877493 0.051774606 0.009951938 -0.01724155 -0.07372355
-0.07539042 -0.010926381 -0.039095588 0.05420757 0.041230235 -0.008572309 -0.061664492 -0.06098068
0.04285597 -0.09066339 -0.06579994 -0.00049041666 -0.010650528 -0.041462276 -0.05724978 -0.10325936
0.009283382 0.04908406 -0.012964354 -0.09765738 0.03473388 -0.032341447 0.03414896 0.020324593
0.022335522 0.030348012 -0.06783865 -0.010048049 0.031143967 0.079332925 -0.029659763 0.045640282
0.0511965 0.04263032 0.08604041 -0.025453689 0.019811207 -0.0786387 -0.043001357 0.030522361
0.041633695 -0.0022117025 -0.008475622 -0.108022526 -0.020806374 -0.08594027 -0.07481102 -0.074701816
00000000: 145b 16bd 2dfe 053c e6e6 1e3e eda0 38bd
00000010: 304b a8bd 3368 df3d 6d4c abbd 2e67 1cbe
00000020: 64cc 6c3e 47c2 863d 185d 413d b909 ba3d
00000030: 652f 443c b732 e2bc bedb a43c fb4d 4abd
00000040: e31a a63c 6bc0 9c3d a122 0ebc 65f2 e43b
00000050: 918e 8a3d e96f 3bbd 64bb 8dbd 5c56 833c
00000060: 1d7e 72bd 6e77 63b9 74a9 ce3c 41c2 78bd
00000070: 9592 aa3d b699 813c 2dc4 4b3d 32cb b93d
00000080: 74d3 a13d 6073 923d 5f54 1d3c 0253 b23d
00000090: d4a7 03bc 5fb1 64ba b5c3 3e3e 6929 88bc
000000a0: 8913 b83c bb00 283e 2a35 edbc 83df 7dbd
000000b0: 39bd 293e 7c91 40bd 577c e03c 6556 13be
000000c0: 2497 de39 d9b8 e53c 2950 1abe 6bd4 5e3d
000000d0: ad24 3fbc ee8a 1cbe a734 943c ab61 00bd
000000e0: 8405 013e 5486 69bd 86e4 b5bd 7c62 743e
000000f0: 2fff afbd 794c 6abd b06a e33d 7f13 d83c
00000100: 2f3d 92bd 1f06 41be d7df c6bb 32bc f1bd
00000110: 42bb 79be 17a1 77bd 7e41 87bc e7c3 5cbe
00000120: a2f1 0ebd 4a0d 933d d043 053e cea7 79bb
00000130: dbef 3dbd e20a 0d3e 1419 2d3d 6e37 7fbd
00000140: 1521 593c 90cf 893c b86d 52bd a7e9 e53c
00000150: 3834 6bbd 4c1d 85bb 6828 673d b178 73bd
00000160: 14fa 8c3d 099b 2f3c b72d cebc 60b8 a9bd
00000170: 226c 053e 334c 91bd 5077 27be 6b47 a6bc
00000180: 8f02 0fbd 9d14 fdbd a580 a33d 237f cb3b
00000190: fe82 443d da41 973d 6015 b5bd be00 90bd
000001a0: c35d d03d 2536 9ebd 0718 9dbd 1430 a93d
000001b0: 1b60 46bd 80e3 2ebc 53e9 913c 3426 b83c
000001c0: f5c7 2abd bdcb 623d 1f1c 87bd c74b 1d3c
000001d0: 5209 753d a7ef 6cbb 57bd 603d 3c43 863c
000001e0: 4514 143d 8f57 1f3d 949e 923d c10f 713d
000001f0: ca10 abbd 66f7 a73c f390 cf3b 86d2 373d
00000200: 4922 edbd 04a0 b9bd 41a1 5e3d a569 9abd
00000210: c065 033d e580 b2bd 95bc 15be 0523 21bd
00000220: a430 373c 2690 ad3d 499b 343d 1fb0 a23c
00000230: f2ae 123d 4f97 773c 3cb7 a03d 3821 163b
00000240: 8318 79bd 278c 71bd 0496 53bd dbfc 86bd
00000250: b8b0 203c 5a2f 09bd 38a5 963d f883 36bc
00000260: 8317 213c e8dc 75bd f75a 093d f64f b9bd
00000270: eb4b 4abc 5d08 12bd c7e4 3c3c 3cd5 403b
00000280: d8e2 79bd 5d2d bc3c 1067 d63c aca2 98bc
00000290: 6d2a 8bbc 52d6 c1bd 5141 b5bd 1121 08bc
000002a0: cfff bbbd ee33 babc 7efa 0abb 8a40 dd3c
000002b0: 7f9f 823d 330c 8d3d 27e7 563c 291c ef3c
000002c0: 6894 3abd ee06 7b3d f578 7c3c 66e5 8ebd
000002d0: f4c0 bebd 6e41 42bc 5a3b 5fbd 1292 e4bc
000002e0: f795 bb3c e5ca 49bd 0fe2 4e3c a1f4 7fbd
000002f0: 10f6 313d 7eb9 843d 4cf3 d7bc 1c5e 3abd
00000300: a092 973c bd4e 8d3c ab6c d03c f963 8e3d
00000310: 980c b53c c36b 453c f5d3 72bd 1d39 44bc
00000320: 7150 0fbd c7eb 8dbc 0320 edbc 09fd d3bc
00000330: 9c11 543d 740d 233c 273e 8dbc 5ffc 96bd
00000340: 4b66 9abd 9004 33bc b222 20bd c208 5e3d
00000350: 09e1 283d df72 0cbc e893 7cbd e1c6 79bd
00000360: be89 2f3d baad b9bd 1ec2 86bd 4e8f 00ba
00000370: 8d7f 2ebc 59d4 29bd bf7e 6abd a579 d3bd
00000380: 5419 183c 5e0c 493d 7168 54bc 9800 c8bd
00000390: 1d45 0e3d 7778 04bd c8df 0b3d c37f a63c
000003a0: fcf8 b63c 659c f83c fdee 8abd 92a0 24bc
000003b0: a221 ff3c 4d79 a23d 08f9 f2bc 4ef1 3a3d
000003c0: 6cb3 513d 219d 2e3d f435 b03d 4184 d0bc
000003d0: 1d4b a23c 540d a1bd 3122 30bd 080a fa3c
000003e0: 1888 2a3d 36f2 10bb 56dd 0abc ea3a ddbd
000003f0: 2172 aabc 7401 b0bd 8536 99bd 44fd 98bd

bias f4 [32]
0.18321943 0.008856542 -0.037509583 0.22992828 0.16846274 -0.009473433 -0.023523794 0.19812392
-0.06840762 0.088017456 0.20395696 -0.03686761 -0.066819176 0.090070836 0.18202394 0.1374861
0.2112574 -0.0025977634 0.02899176 -0.12180729 -0.03322854 0.02133643 0.023978062 0.014605203
-0.027879601 0.024123702 0.17894694 0.0633212 0.17108083 -0.09486974 -0.08830019 0.040002707
00000000: e09d 3b3e 081b 113c a6a3 19bd 5272 6b3e
00000010: 7f81 2c3e 7536 1bbc f9b4 c0bc ffe0 4a3e
00000020: 4b19 8cbd 7f42 b43d 18da 503e 7e02 17bd
00000030: 7ed8 88bd 0f77 b83d 7c64 3a3e 28c9 0c3e
00000040: dc53 583e 3d3f 2abb 2180 ed3c 1a76 f9bd
00000050: a61a 08bd bdc9 ae3c a46d c43c a94a 6f3c
00000060: c363 e4bc 129f c53c de3d 373e 8cae 813d
00000070: d02f 2f3e 114b c2bd bbd6 b4bd e1d9 233d

weight f4 [1, 1920]
0.012885713 -0.111462764 0.040537186 -0.09506901 0.058576766 -0.10455227 0.047798328 -0.11338146
0.020058969 -0.11758891 0.020220444 -0.121730946 0.019179001 -0.08852595 0.04302921 -0.07429451
0.016037796 -0.06283064 0.050834905 -0.060848735 0.018823508 -0.06845006 0.015989378 -0.07107511
0.057862435 -0.08321205 0.027737401 -0.06256107 0.046559952 -0.034303144 0.050420456 -0.06627429
0.022197291 -0.039211497 0.004575449 -0.051179193 0.029381424 -0.05087081 0.05509516 -0.071913354
0.045098756 -0.06592391 0.049778603 -0.0619017 0.035729334 -0.08062142 0.027004387 -0.07442598
0.05694244 -0.08544931 0.046423256 -0.079442956 0.011616281 -0.071031205 0.021467902 -0.08790953
0.026695328 -0.100472964 0.076198936 -0.11069109 0.005704247 -0.014419516 0.004569133 0.015233977
-0.014612453 -0.0055484055 0.010963884 0.0006045574 -0.0049019 -0.031645767 -0.015719082 -8.201702e-05
0.012958234 -0.017832413 -0.014584442 0.013799883 -0.002923012 -0.023937054 -0.011970182 0.015613323
0.00076915574 -0.011692502 0.002941776 -0.0157226 0.0032314563 0.0066578803 -0.009961956 0.0077773686
0.023398755 0.006727411 -0.008914929 0.019556442 -0.001311521 0.02088609 0.021693086 -0.0043935203
0.02063237 -0.01505124 -0.0014001128 0.014616967 0.023366742 -0.0078661395 -0.0057750577 0.0059268354
0.0049784984 0.005985921 0.012832223 -0.017237665 0.015621486 -0.004051178 -0.0039038386 -0.022070665
0.0023911127 0.015138 0.023788901 -0.021616548 -0.007802073 -0.0015332083 0.0055623865 -0.016856255
-0.13728952 0.12411325 -0.08188571 0.05835242 -0.07231051 0.05589841 -0.017425152 0.061451655
-0.059859782 0.07855749 -0.050532244 0.07446138 -0.04295008 0.05128067 -0.059342995 0.0412685
-0.07150575 0.0972332 -0.06530318 0.08598099 -0.076995075 0.06281594 -0.052937903 0.08316213
-0.052251674 0.055650968 -0.09333757 0.070783824 -0.087160945 0.10222965 -0.049623337 0.092517935
-0.029288039 0.055813987 -0.065710194 0.055038534 -0.08200047 0.0674061 -0.07102145 0.09698273
-0.069087535 0.105993606 -0.039667062 0.102293715 -0.07746142 0.0794053 -0.06120396 0.033972703
-0.07369804 0.04974005 -0.057962283 0.03594152 -0.042274956 0.052616224 -0.06745093 0.06818874
-0.10046997 0.025714347 -0.1084619 0.13683698 -0.14864144 0.15419401 -0.09069506 0.13592002
-0.08853331 0.1509681 -0.11317322 0.099806234 -0.08348525 0.08291197 -0.046363167 0.07600799
-0.10706403 0.072737314 -0.15970945 0.074327804 -0.1495538 0.036766905 -0.1343862 0.052598383
-0.08531942 0.067666486 -0.106864914 0.08947732 -0.1137295 0.047027916 -0.119172074 0.08551729
-0.1140598 0.087476745 -0.16072905 0.09003686 -0.1118823 0.06375005 -0.07210083 0.049875613
-0.05562223 0.07932588 -0.11712766 0.158163 -0.13802356 0.13126183 -0.20648086 0.11565239
-0.15824164 0.0661637 -0.10914826 0.07394328 -0.102889895 0.04579428 -0.12601313 0.08928205
-0.09198874 0.09224552 -0.092352286 0.09258356 -0.14035366 0.12429306 -0.15161957 0.19578911
-0.12950324 0.136354 -0.056483466 0.12523866 -0.034979198 0.14746737 -0.0821158 0.12966903
-0.101512074 0.07091671 -0.067164555 0.11405467 -0.11683238 0.07107106 -0.129436 0.057211652
00000000: 991e 533c 9746 e4bd 520a 263d 8bb3 c2bd
00000010: 31ee 6f3d 801f d6bd 2ec8 433d 8a34 e8bd
00000020: b552 a43c 74d2 f0bd 58a5 a53c 134e f9bd
00000030: 481d 9d3c 184d b5bd 663f 303d b827 98bd
00000040: b261 833c 5aad 80bd 4338 503d 863c 79bd
00000050: c233 9a3c 8c2f 8cbd 28fc 823c d48f 91bd
00000060: 2901 6d3d 146b aabd 8c39 e33c 0520 80bd
00000070: a6b5 3e3d 7481 0cbd ae85 4e3d d1ba 87bd
00000080: 18d7 b53c 3c9c 20bd a6ed 953b 46a1 51bd
00000090: 50b1 f03c e95d 50bd 76ab 613d 4f47 93bd
000000a0: 79b9 383d 1d03 87bd a6e4 4b3d a38c 7dbd
000000b0: ec58 123d d81c a5bd 4e38 dd3c a66c 98bd
000000c0: 7a3c 693d 0c00 afbd 5026 3e3d fdb2 a2bd
000000d0: 3752 3e3c cf78 91bd 74dd af3c e909 b4bd
000000e0: 29b0 da3c c5c4 cdbd 300e 9c3d 03b2 e2bd
000000f0: b1ea ba3b d53f 6cbc aab8 953b ee97 793c
00000100: 1269 6fbc 66cf b5bb dda1 333c 297b 1e3a
00000110: 1ea0 a0bb fe9e 01bd 4ec5 80bc 8d00 acb8
00000120: c64e 543c 4815 92bc 95f3 6ebc e818 623c
00000130: 0190 3fbb a417 c4bc 951e 44bc 06cf 7f3c
00000140: 2ba1 493a e891 3fbc d0ca 403b afcc 80bc
00000150: d7c6 533b 592a da3b 7937 23bc 4cd9 fe3b
00000160: bfae bf3c 9d71 dc3b ec0f 12bc d534 a03c
00000170: 58e7 abba 4e19 ab3c b3b5 b13c 85f7 8fbb
00000180: 3705 a93c 7a99 76bc fd83 b7ba 017c 6f3c
00000190: 9c6b bf3c fbe0 00bc b23c bdbb e635 c23b
000001a0: ac22 a33b 8b25 c43b 3f3e 523c 0136 8dbc
000001b0: 43f1 7f3c bfbf 84bb 8bd7 7fbb 8acd b4bc
000001c0: 37b4 1c3b 6005 783c f1e0 c23c 3015 b1bc
000001d0: 88a8 ffbb eff5 c8ba ae44 b63b 2116 8abc
000001e0: a095 0cbe 162f fe3d b2b3 a7bd f202 6f3d
000001f0: 8817 94bd bbf5 643d 31bf 8ebc bbb4 7b3d
00000200: 882f 75bd c0e2 a03d e6fa 4ebd 357f 983d
00000210: 6cec 2fbd ae0b 523d a411 73bd 2909 293d
00000220: 9b71 92bd 3322 c73d acbd 85bd cd16 b03d
00000230: 98af 9dbd a5a5 803d 6ad5 58bd e850 aa3d
00000240: da05 56bd 45f2 633d c527 bfbd 1cf7 903d
00000250: 7081 b2bd c75d d13d d741 4bbd 0b7a bd3d
00000260: 78ed efbc 359d 643d 1193 86bd 1670 613d
00000270: ddef a7bd 360c 8a3d b273 91bd e29e c63d
00000280: c47d 8dbd 2d13 d93d ee79 22bd 5e7f d13d
00000290: 18a4 9ebd 3f9f a23d 01b1 7abd f626 0b3d
000002a0: ffee 96bd 39bc 4b3d dc69 6dbd 6a37 133d
000002b0: 8128 2dbd 1c84 573d b723 8abd 8aa6 8b3d
000002c0: 33c3 cdbd e5a6 d23c 4621 debd fe1e 0c3e
000002d0: 7635 18be 09e5 1d3e 55be b9bd 9e2e 0b3e
000002e0: f450 b5bd 6297 1a3e 5cc7 e7bd 3667 cc3d
000002f0: 51fa aabd c0cd a93d 4ee7 3dbd 14aa 9b3d
00000300: 6344 dbbd 4df7 943d e08a 23be 2d39 983d
00000310: a224 19be e598 163d 899c 09be 6771 573d
00000320: f3bb aebd ba94 8a3d fedb dabd e33f b73d
00000330: 03eb e8bd 58a0 403d 7d10 f4bd b023 af3d
00000340: 2f98 e9bd 0227 b33d 2896 24be 3f65 b83d
00000350: 8c22 e5bd 638f 823d 9aa9 93bd 5f4a 4c3d
00000360: 23d4 63bd 9b75 a23d a0e0 efbd 7bf5 213e
00000370: 0c56 0dbe 8069 063e b86f 53be 29db ec3d
00000380: 190a 22be d580 873d 1f89 dfbd 936f 973d
00000390: f0b7 d2bd c892 3b3d 9609 01be 82d9 b63d
000003a0: 9864 bcbd 38eb bc3d 3223 bdbd 739c bd3d
000003b0: dfb8 0fbe 5c8d fe3d 2942 1bbe f17c 483e
000003c0: 7f9c 04be 62a0 0b3e 355b 67bd 903e 003e
000003d0: 5946 0fbd b001 173e 542c a8bd f5c7 043e
000003e0: 90e5 cfbd c83c 913d 928d 89bd 7f95 e93d
000003f0: d145 efbd b48d 913d df8a 04be c456 6a3d
